contoh-koding-dan-penerapan/model.tflite (tflite, 13096 bytes, 5 tensors)

dense/bias f4 [64]
-2.1076363e-05 0.0036592393 0.0 0.010865541 0.0 0.042486526 0.020545745 0.0
-0.0028760233 -0.034571823 -0.0052305753 -0.0027220582 -0.009011819 0.006733728 3.8116887e-05 2.971314e-05
0.0 5.659916e-06 0.00027196782 0.0 0.0072501497 -0.00035752935 0.015249717 0.0
0.009263501 -0.011359856 0.0022974075 0.0 -0.014242737 0.0 0.03526001 0.033629797
0.0038717217 0.0 0.10759988 0.0 -0.023879616 0.008293201 -2.1282096e-05 -0.00029496796
3.460914e-05 0.013866782 0.0031256194 0.0 9.260356e-05 0.0 0.00028690588 2.0357676e-05
-0.00040766312 0.0512706 -3.715953e-05 -0.003704031 -0.0012845449 0.0024640884 -1.8732625e-06 0.023364587
0.00048124036 -0.0002108255 1.565716e-05 0.0 0.004033621 -1.63284e-05 -0.0166813 -0.008112868
00000000: 25cd b0b7 d9cf 6f3b 0000 0000 6205 323c
00000010: 0000 0000 5a06 2e3d 8d4f a83c 0000 0000
00000020: aa7b 3cbb 2f9b 0dbd 3f65 abbb 8f64 32bb
00000030: 4fa6 13bc 9ba6 dc3b b2df 1f38 7b40 f937
00000040: 0000 0000 4fea bd36 e796 8e39 0000 0000
00000050: aa92 ed3b c772 bbb9 f3d9 793c 0000 0000
00000060: f0c5 173c b11e 3abc 1a90 163b 0000 0000
00000070: 5e5a 69bc 0000 0000 cd6c 103d 66bf 093d
00000080: b6bc 7d3b 0000 0000 535d dc3d 0000 0000
00000090: 2f9f c3bc 35e0 073c f486 b2b7 eea5 9ab9
000000a0: 4829 1138 8031 633c 31d7 4c3b 0000 0000
000000b0: 2834 c238 0000 0000 db6b 9639 c7c5 aa37
000000c0: 9ebb d5b9 1f01 523d bedb 1bb8 54bf 72bb
000000d0: 2d5e a8ba 8b7c 213b cf6c fbb5 1767 bf3c
000000e0: fd4e fc39 0a11 5db9 7f57 8337 0000 0000
000000f0: 772c 843b f9f8 88b7 39a7 88bc d6eb 04bc

sequential/dense/MatMul f4 [64, 8]
-0.22205772 0.23355526 0.038025584 0.11409926 0.05680996 -0.031397063 -0.19617635 0.1973149
-0.024205407 0.0011727636 0.09081126 -0.16902228 -0.15132114 -0.04725766 -0.016398486 0.028814023
0.16014582 0.19271177 -0.2555137 -0.015665919 -0.24596022 0.072099745 -0.076336786 -0.24627662
0.14575961 0.019788757 -0.27756226 0.13489254 0.08149128 -0.087007076 -0.12999439 -0.16753338
0.050162792 -0.24600586 -0.28409576 0.22202921 -0.2644045 0.28015554 0.24998784 0.12878528
0.17929418 -0.027610172 0.035800155 0.07490427 0.09912019 -0.23589815 0.6236256 0.041585155
0.21619862 0.081918016 -0.2424486 -0.1336403 0.042773347 0.062226355 0.033877958 0.31005326
0.04419011 -0.07668504 -0.2633247 -0.098834604 0.08195007 -0.121696725 -0.086775824 -0.0054728687
0.26274768 -0.14749962 0.16043004 -0.23675245 -0.21330914 0.12702785 0.20622565 0.03183959
0.098543264 -0.28558642 0.21996307 0.14745797 0.14266281 -0.14616369 0.03642886 -0.031750526
0.043593213 0.1565482 -0.09941874 0.14300911 -0.2643581 -0.09808013 -0.21626051 -0.15384927
0.1929583 0.25290605 -0.2541672 0.035926815 -0.089348994 0.1842895 0.5883932 0.21471587
-0.20336154 0.17190449 -0.15399048 -0.14215055 0.057731424 -0.2153989 -0.023304678 -0.050231922
-0.17160538 -0.061464 0.19781025 0.118999206 -0.010259774 -0.15069656 0.23690374 -0.12207463
0.21860673 0.23083259 -0.035234496 -0.05485801 0.07593618 0.12440113 0.5579621 -0.011806051
0.20264496 0.23021527 0.15919334 0.16021955 0.0053820577 0.14978132 0.42033973 -0.30401745
0.2879107 -0.17305535 0.07008344 -0.16010156 -0.03602329 -0.19088626 0.1380423 -0.057237774
-0.2070452 0.09176662 -0.064483404 0.28658697 0.1286553 -0.14549038 0.07300814 0.23576292
-0.067026995 0.17931612 0.23333842 -0.11616214 -0.017453017 -0.19073552 0.53488344 0.19554426
-0.17903526 -0.2802288 -0.24318402 0.07581854 -0.04709056 -0.20918593 -0.11777167 0.1595568
0.20289876 -0.2558602 -0.1571545 -0.11979483 0.16087225 0.109516285 -0.17262341 0.18446086
-0.26763105 0.00014827929 0.32697147 -0.18767835 -0.016074875 0.104717284 0.00018677085 0.12918314
0.118452825 -0.06798036 0.22968361 0.20316242 -0.1356008 -0.081517905 -0.26802075 0.04419673
-0.0016196072 0.0010451078 0.17732564 -0.16780934 -0.17809716 -0.27637705 -0.261171 -0.107538626
-0.07068475 0.017286645 -0.27993333 0.26533768 0.0113404235 0.19067985 0.15641609 -0.061524134
0.08408847 0.25600034 0.20258343 -0.29198956 -0.09885691 0.027804336 -0.3568533 -0.25103348
-0.013597204 -0.038006317 -0.13656892 0.23167516 0.2307161 -0.19387203 -0.50347507 -0.08474538
-0.038672656 -0.28312173 -0.09620699 0.08836454 -0.23241165 -0.18438093 -0.14879043 0.16206756
0.25236452 0.06236013 0.006733078 -0.09802414 -0.2754896 -0.2219366 -0.27547047 0.1360685
0.09365466 0.025320023 -0.22791603 -0.13968812 -0.18334876 -0.20766763 0.2597881 0.02303961
0.04391322 0.20447814 0.30018613 -0.02983181 -0.15951674 -0.12833922 0.41771966 -0.25406903
0.029354967 0.15128952 -0.05932506 -0.27581796 0.059923206 -0.045365095 -0.35568973 -0.21386701
00000000: 1963 63be 1c29 6f3e b7c0 1b3d dfac e93d
00000010: 90b1 683d 359a 00bd 74e2 48be eb0c 4a3e
00000020: 6b4a c6bc 6bb7 993a 41fb b93d 2d14 2dbe
00000030: eef3 1abe 4091 41bd 1e56 86bc 630b ec3c
00000040: 44fd 233e 3c56 453e b1d2 82be d055 80bc
00000050: ffdc 7bbe 08a9 933d 7656 9cbd f02f 7cbe
00000060: 0242 153e 081c a23c a41c 8ebe 4521 0a3e
00000070: e6e4 a63d c430 b2bd 401d 05be df8d 2bbe
00000080: 8077 4d3d f6e8 7bbe 0075 91be a05b 633e
00000090: 0760 87be 8c70 8f3e d0fc 7f3e 4ae0 033e
000000a0: e598 373e ba2e e2bc 2fa3 123d 6967 993d
000000b0: 87ff ca3d 498f 71be eda5 1f3f 3255 2a3d
000000c0: 2c63 5d3e a2c4 a73d 7244 78be 01d9 08be
000000d0: 1b33 2f3d 10e1 7e3d 9dc3 0a3d 4dbf 9e3e
000000e0: b000 353d 0c0d 9dbd 7fd2 86be cc69 cabd
000000f0: 70d5 a73d 223c f9bd 86b7 b1bd c055 b3bb
00000100: dd86 863e 240a 17be c647 243e 3c6f 72be
00000110: b66d 5abe 9713 023e d12c 533e 3b6a 023d
00000120: 0dd1 c93d 6238 92be 003e 613e 39ff 163e
00000130: 3316 123e efab 15be 6e36 153d d70c 02bd
00000140: cc8e 323d 2c4e 203e 0d9c cbbd fb70 123e
00000150: f259 87be 3cde c8bd 6573 5dbe aa8a 1dbe
00000160: dc96 453e e77c 813e 3422 82be ff27 133d
00000170: 9bfc b6bd 63b6 3c3e f0a0 163f 7ade 5b3e
00000180: 023e 50be bb07 303e aeaf 1dbe ea8f 11be
00000190: c977 6c3d 8791 5cbe 74e9 bebc fdbf 4dbd
000001a0: 52b9 2fbe adc1 7bbd c58e 4a3e dbb5 f33d
000001b0: 9c18 28bc 3350 1abe e596 723e 4302 fabd
000001c0: 71da 5f3e 615f 6c3e 0c52 10bd cbb2 60bd
000001d0: 6e84 9b3d 05c6 fe3d 9bd6 0e3f 2b6e 41bc
000001e0: 2982 4f3e 8dbd 6b3e 9403 233e 9810 243e
000001f0: f95b b03b 4660 193e c536 d73e 2da8 9bbe
00000200: 0869 933e 6c35 31be e887 8f3d aaf1 23be
00000210: 288d 13bd b077 43be f65a 0d3e 2872 6abd
00000220: a803 54be 23f0 bb3d e00f 84bd 87bb 923e
00000230: 37be 033e 6efb 14be 4b85 953d d66b 713e
00000240: 7345 89bd a59e 373e 44f0 6e3e 6be6 edbd
00000250: a1f9 8ebc 2c50 43be 1fee 083f c13c 483e
00000260: 0555 37be 267a 8fbe 3b05 79be c046 9b3d
00000270: 08e2 40bd d634 56be 4632 f1bd dc62 233e
00000280: b1c4 4f3e 1c00 83be 1ced 20be fe56 f5bd
00000290: b2bb 243e 134a e03d 31c4 30be 4fe3 3c3e
000002a0: f006 89be 6b7b 1b39 ce68 a73e c12e 40be
000002b0: 75af 83bc 0476 d63d ebd7 4339 9648 043e
000002c0: 6597 f23d 4939 8bbd 2e32 6b3e cf09 503e
000002d0: f0da 0abe dcf2 a6bd 043a 89be a107 353d
000002e0: 0049 d4ba 00fc 883a da94 353e 36d6 2bbe
000002f0: 1a5f 36be 4b81 8dbe 35b8 85be 363d dcbd
00000300: 2bc3 90bd b99c 8d3c 6c53 8fbe 57da 873e
00000310: 2fcd 393c 9441 433e 8a2b 203e bb00 7cbd
00000320: 9336 ac3d 7a12 833e 0872 4f3e a87f 95be
00000330: 7e75 cabd ebc5 e33c 7ab5 b6be 7687 80be
00000340: cfc6 5ebc 83ac 1bbd b9d8 0bbe 413c 6d3e
00000350: d740 6c3e 6486 46be bee3 00bf fc8e adbd
00000360: 3867 1ebd 55f5 90be 2c08 c5bd 78f8 b43d
00000370: 52fd 6dbe 5bce 3cbe 855c 18be 0af5 253e
00000380: ec35 813e 566d 7f3d 27a1 dc3b e1c0 c8bd
00000390: f90c 8dbe 5943 63be 770a 8dbe 8a55 0b3e
000003a0: 04ce bf3d f06b cf3c d262 69be 670a 0fbe
000003b0: c7bf 3bbe d3a6 54be f202 853e 90bd bc3c
000003c0: 59de 333d b862 513e ffb1 993e d761 f4bc
000003d0: 5b58 23be 5b6b 03be 5adf d53e 5615 82be
000003e0: d479 f03c a4eb 1a3e d6fe 72bd 0338 8dbe
000003f0: 0972 753d c0d0 39bd f71c b6be f4ff 5abe

sequential/dense_1/MatMul;sequential/dense_1/Relu;sequential/dense_1/BiasAdd f4 [32]
0.65825915 1.0759872 2.0413675 -0.11991053 -1.2655919 0.92259943 -1.3014346 -0.91183895
2.5386314 2.4859855 1.8223376 1.1852605 -3.3704493 4.25339 0.6945504 1.3133934
0.46022668 -4.5798435 2.5268795 -4.7589054 -0.8081016 3.0010917 -4.150121 2.8298707
0.04965392 -1.6901644 -0.93911666 1.4843843 1.7181977 -1.1207688 0.4633307 -0.39333582
00000000: ac83 283f f3b9 893f c4a5 0240 a793 f5bd
00000010: eafe a1bf 7a2f 6c3f 6995 a6bf 476e 69bf
00000020: f078 2240 631a 1f40 5c42 e93f 9eb6 973f
00000030: 71b5 57c0 c51b 8840 0ece 313f 461d a83f
00000040: d5a2 eb3e 148e 92c0 65b8 2140 f448 98c0
00000050: bfdf 4ebf e311 4040 cbcd 84c0 9a1c 3540
00000060: e961 4b3d 4f57 d8bf f369 70bf 4e00 be3f
00000070: e7ed db3f 5a75 8fbf ae39 ed3e 5063 c9be

sequential/batch_normalization/batchnorm/mul_1;sequential/batch_normalization/batchnorm/add_1;sequential/dense_1/MatMul;sequential/dense_1/Relu;sequential/dense_1/BiasAdd f4 [32, 64]
0.017120285 0.24797404 -4.6902556 -0.29313582 0.57494205 -0.013439721 -0.037277803 1.3314834
1.8891253 -0.015805632 1.5060905 -0.03178165 -0.01934819 0.04066249 0.0035313044 -0.02065376
-2.744059 -0.007209101 0.015260746 4.5081997 0.00046575558 0.024019593 -0.05789336 5.8021564
0.07694051 0.007620369 0.0032505398 -5.429507 -0.3723328 -7.344821 -0.02400665 0.0194105
-0.07153023 -6.8352003 -0.09372895 -4.3896556 0.003371428 -0.021539712 -0.0023255572 -0.002215816
0.0057848743 0.024780028 0.016764972 6.443453 0.01907817 4.5036287 -0.09501959 0.0007720479
-0.0051892046 -0.0131705105 -0.015512467 -0.028070325 -0.019297915 -0.0027113196 0.0088463165 -0.005840034
-0.06877776 0.017662507 0.0151400305 -6.9900284 0.0043637413 0.009744002 0.3694789 0.04809542
0.016749108 2.192617 -4.318549 0.15585445 -7.013677 0.021654285 -0.019375794 2.824046
-5.1904726 0.013784949 -0.11543027 -0.026955456 -0.014192576 -0.17402294 -0.002987304 -0.01657854
-5.5443773 0.0023718185 -0.018085107 3.0638263 0.12442134 -0.018067524 -0.018533211 -2.6429212
-0.008890047 -0.03106709 -0.010886632 -7.1862087 0.82732034 -4.0022383 0.024805093 -0.03939725
-0.108013324 6.313491 0.066122934 -5.887798 -0.008813903 -0.016445206 -0.0012356706 -0.06311273
0.013301145 0.036200587 0.064590216 -3.390722 0.012362187 0.24290775 -0.042546377 -0.0113211665
0.004978021 0.018439094 0.009470275 -0.015437248 0.5282093 0.08862013 0.004199708 -0.011961318
-0.056587458 -0.0037120786 -0.0068799388 -2.402009 -0.0025362282 5.999833e-05 -0.34201193 -0.05737585
0.010434336 -1.2789637 2.8111496 -0.014119562 -5.9888515 0.02073142 0.0010467042 -7.025863
-6.0729427 -0.05578189 -0.09239916 -0.037678733 0.023007967 0.083359964 -0.020617701 0.02159261
-4.4383836 -0.02184238 -0.011978306 -1.793034 -0.05186757 -0.018994967 0.011128304 -8.828219
-0.17678016 0.014916287 0.016493937 5.265954 -1.3768291 1.7740784 0.0011824516 0.03369719
-0.08900924 8.761312 0.060828287 1.0839418 0.01630739 -0.02877054 -0.0076237423 0.06741727
-0.004751572 -0.024539413 -0.049283464 -2.424721 0.0052783173 -2.714841 0.105245985 -0.015693083
0.00390202 0.0018832424 0.0069160406 0.0063313334 1.1307809 -0.11954298 -0.011982313 0.011064255
-0.029044133 0.00010757232 -0.0018582003 -6.7993917 0.017343828 -0.008932842 0.3294426 0.042776268
-0.004493037 0.41665763 -2.8901718 0.09931217 5.2819304 -0.03174426 0.01833381 -0.90690213
0.2815215 -0.022845041 0.64058435 -0.031393886 0.028131893 0.057779584 -0.017958641 -0.033195805
-1.5492451 0.0016463716 -0.017354397 4.780185 0.060900867 0.045520592 -0.0058891093 -2.8964732
-0.08938147 -0.018450134 0.007073058 -6.2530513 -1.426638 -6.500352 0.02766379 0.023567483
-0.019484881 -5.0564895 -0.0017012483 -3.5993185 0.004887372 -0.0023255837 0.0072992626 -0.005818786
0.00072627 -0.0368929 0.011009031 -1.187953 0.011954695 -7.7985053 0.00049388 0.0015132134
-0.011845945 0.011549564 0.00715215 0.010311591 1.060114 0.14210692 0.01266641 0.0015763099
-0.061556786 0.0048627844 0.004095992 6.0369854 -0.021775765 0.013129053 0.017521122 0.015009796
00000000: d73f 8c3c e8ec 7d3e 9316 96c0 e615 96be
00000010: 672f 133f 4732 5cbc 9cb0 18bd 0c6e aa3f
00000020: dcce f13f d07a 81bc 93c7 c03f 7a2d 02bd
00000030: 1880 9ebc b68d 263d 756d 673b 1332 a9bc
00000040: aa9e 2fc0 533a ecbb 3508 7a3c 2c43 9040
00000050: a830 f439 bdc4 c43c 9621 6dbd 44ab b940
00000060: fc92 9d3d 4ab4 f93b 0207 553b 85be adc0
00000070: 68a2 bebe c608 ebc0 98a9 c4bc c502 9f3c
00000080: 717e 92bd f6b9 dac0 f7f4 bfbd 0f78 8cc0
00000090: 2df3 5c3b 0d74 b0bc 6068 18bb 3937 11bb
000000a0: 0b8f bd3b 7cff ca3c b256 893c c430 ce40
000000b0: d349 9c3c ba1d 9040 a199 c2bd 4263 4a3a
000000c0: 340a aabb 20c9 57bc 0128 7ebc bdf3 e5bc
000000d0: a916 9ebc 65b0 31bb 24f0 103c c25d bfbb
000000e0: 5bdb 8cbd f6b0 903c e40d 783c 50ae dfc0
000000f0: b7fd 8e3b 4ea5 1f3c 572c bd3e b4ff 443d
00000100: 6d35 893c d653 0c40 8e31 8ac0 4f98 1f3e
00000110: 0b70 e0c0 5464 b13c fcb9 9ebc 2bbd 3440
00000120: 5a18 a6c0 44da 613c b566 ecbd b0d1 dcbc
00000130: fa87 68bc 1233 32be a5c6 43bb b8cf 87bc
00000140: 8a6b b1c0 8370 1b3b 3827 94bc bb15 4440
00000150: 9ed0 fe3d 5802 94bc f6d2 97bc 9f25 29c0
00000160: 8fa7 11bc 6980 febc d85d 32bc 6cf5 e5c0
00000170: 44cb 533f 5612 80c0 0d34 cb3c 035f 21bd
00000180: 1736 ddbd 1e08 ca40 766b 873d d768 bcc0
00000190: 3068 10bc 19b8 86bc 3af6 a1ba 3f41 81bd
000001a0: 0ced 593c 1147 143d e047 843d 9701 59c0
000001b0: c58a 4a3c cfbc 783e 1c45 2ebd 6a7c 39bc
000001c0: ab1e a33b 950d 973c 3629 1b3c 83ec 7cbc
000001d0: ba38 073f 797e b53d b49d 893b 67f9 43bc
000001e0: 40c8 67bd 5846 73bb 1c71 e1bb 84ba 19c0
000001f0: d936 26bb b7a6 7b38 301c afbe f002 6bbd
00000200: c7f4 2a3c 15b5 a3bf e0e9 3340 bc55 67bc
00000210: aca4 bfc0 f0d4 a93c 9131 893a dfd3 e0c0
00000220: 8c55 c2c0 8d7b 64bd c53b bdbd 0455 1abd
00000230: 347b bc3c a1b8 aa3d 74e6 a8bc fce2 b03c
00000240: 3d07 8ec0 caee b2bc a840 44bc 2382 e5bf
00000250: 1773 54bd 559b 9bbc 7d53 363c 6340 0dc1
00000260: dc05 35be 7163 743c 4b1e 873c b282 a840
00000270: f03b b0bf 0015 e33f 7efc 9a3a 1106 0a3d
00000280: 7a4a b6bd 552e 0c41 1527 793d 9bbe 8a3f
00000290: 1397 853c 32b0 ebbc 96d0 f9bb 1112 8a3d
000002a0: 13b3 9bbb e106 c9bc 75dd 49bd a12e 1bc0
000002b0: bcf5 ac3b f4bf 2dc0 358b d73d c88e 80bc
000002c0: 08b9 7f3b 21d7 f63a f49f e23b 1377 cf3b
000002d0: 6ebd 903f f3d2 f4bd 7751 44bc d946 353c
000002e0: f6ed edbc 7398 e138 db8e f3ba 9e94 d9c0
000002f0: a514 8e3c 0e5b 12bc b3ac a83e 2b36 2f3d
00000300: 533a 93bb 2654 d53e 93f8 38c0 2e64 cb3d
00000310: 9305 a940 4506 02bd c930 963c bd2a 68bf
00000320: 9623 903e 8625 bbbc 56fd 233f e096 00bd
00000330: db74 e63c 49aa 6c3d 001e 93bc 53f8 07bd
00000340: aa4d c6bf 10cb d73a cf2a 8ebc 47f7 9840
00000350: 3073 793d cd73 3a3d 6ef9 c0bb d15f 39c0
00000360: a20d b7bd bc24 97bc 1cc5 e73b ff18 c8c0
00000370: 139c b6bf e202 d0c0 2c9f e23c 9810 c13c
00000380: c29e 9fbc c3ce a1c0 6cfc deba 3c5b 66c0
00000390: 3f26 a03b d268 18bb a72e ef3b 84ab bebb
000003a0: 2863 3e3a 021d 17bd 395f 343c d80e 98bf
000003b0: a0dd 433c 5b8d f9c0 ba77 013a 0457 c63a
000003c0: 7f15 42bc 623a 3d3c 955c ea3b f3f1 283c
000003d0: d1b1 873f 7a84 113e c686 4f3c 2f9c ce3a
000003e0: f822 7cbd fe57 9f3b ac37 863b fc2e c140
000003f0: 1763 b2bc 3d1b 573c 7588 8f3c a6eb 753c

sequential/batch_normalization_1/batchnorm/mul_1;sequential/batch_normalization_1/batchnorm/add_1;sequential/dense_2/MatMul;sequential/dense_2/BiasAdd f4 [1, 32]
-1.1042434 0.3782387 -1.3047129 -1.7114229 -1.7574389 -0.7571527 0.7706039 0.17465633
1.1879889 0.1552345 -0.62898374 0.11461999 -0.74577427 -1.1832509 -1.0290617 -1.4284211
-2.3383424 0.3755635 -1.264875 0.85692465 -0.5815809 -2.14268 0.33262807 -1.66159
1.4427408 0.4505601 0.39037108 -1.4346002 1.6405702 -0.5162737 -0.562897 -1.2654017
00000000: d957 8dbf 81a8 c13e d500 a7bf e80f dbbf
00000010: c2f3 e0bf c2d4 41bf 4c46 453f 1cd9 323e
00000020: 0510 983f cbf5 1e3e 1405 21bf e3bd ea3d
00000030: 10eb 3ebf c474 97bf 4bb8 83bf 81d6 b6bf
00000040: 67a7 15c0 dc49 c03e 6de7 a1bf 6a5f 5b3f
00000050: 7ce2 14bf ab21 09c0 3a4e aa3e fbae d4bf
00000060: bbab b83f d0af e63e b8de c73e fba0 b7bf
00000070: 34fe d13f 832a 04bf 051a 10bf aff8 a1bf
