contoh-koding-dan-penerapan/model2.tflite (tflite, 30644 bytes, 7 tensors)

sequential/dense_1/MatMul;sequential/dense_1/Relu;sequential/dense_1/BiasAdd f4 [64]
0	0xc0474720	-3.1137161
1	0xc01cdd4d	-2.4510071
2	0x3fdb8da1	1.7152597
3	0x3dfcc8cd	0.12342987
4	0x3fa9c8ce	1.3264406
5	0x3f67ba14	0.9051831
6	0xc00d273d	-2.20552
7	0x401e7557	2.4759119
8	0x401af417	2.421148
9	0x40445a91	3.0680277
10	0x4015e112	2.3418622
11	0x3f7369cf	0.95083326
12	0x3ecfe12a	0.40601474
13	0xbb3a52d2	-0.0028430712
14	0x3ee52fe1	0.4476309
15	0xc0bc6311	-5.887093
16	0xbfc6987f	-1.5515288
17	0x3f154d1a	0.5832077
18	0x3f01bb00	0.50675964
19	0xc022a9ab	-2.5416057
20	0xbff56360	-1.9170952
21	0xbf17d0af	-0.593028
22	0xbdaae1dc	-0.083438605
23	0x3fa2df0e	1.2724321
24	0x400386bd	2.0550988
25	0xc00f8002	-2.242188
26	0xbeaa6f08	-0.33287835
27	0x3f8861f2	1.065489
28	0xbf8fb7f3	-1.1228012
29	0xbfc4d7f1	-1.53784
30	0x3f3027c3	0.6881067
31	0x3f990f24	1.1957746
32	0x3de29c9b	0.110650264
33	0x3deefb24	0.11668995
34	0xbf3e29de	-0.74282634
35	0x3f8a57d7	1.0808057
36	0xbd968f81	-0.0735159
37	0x3fb5e83f	1.4211501
38	0x3e982dc0	0.29722404
39	0x3e1d760c	0.15377063
40	0xc029a466	-2.650659
41	0x3f51afa5	0.8190864
42	0xc083f60b	-4.1237845
43	0xc02b56e6	-2.6771789
44	0x3f2a699b	0.6656739
45	0x4012e5ce	2.2952762
46	0x3fb17372	1.3863356
47	0x404ce760	3.201622
48	0xbeba40f8	-0.36377692
49	0xc0704c45	-3.7546551
50	0x3ff93865	1.9470335
51	0xc017b624	-2.370492
52	0xbfbe7c1a	-1.4881623
53	0x3f104971	0.5636206
54	0x3eb991ec	0.36244142
55	0x3f84edd2	1.0385077
56	0xbda0f4ea	-0.07859214
57	0xc00620a8	-2.0957432
58	0xc02ef213	-2.733525
59	0x3e6f375f	0.23360966
60	0x3eb38080	0.35058975
61	0xbf964fcb	-1.1743101
62	0x40028b57	2.0397546
63	0x3fa03b7d	1.2518154

sequential/batch_normalization/batchnorm/mul_1;sequential/batch_normalization/batchnorm/add_1;sequential/dense_1/MatMul;sequential/dense_1/Relu;sequential/dense_1/BiasAdd f4 [64, 64]
0	0xbd74f7de	-0.059806697
1	0xbc64cfc5	-0.013965552
2	0x3ccea2e4	0.025224157
3	0x3c0ad406	0.008473402
4	0xbf4c8fb5	-0.7990678
5	0xc046cc4a	-3.1062188
6	0x3c03c026	0.008041417
7	0xbba388a3	-0.0049906536
8	0x3b94868b	0.0045326403
9	0x3c2efec0	0.010680854
10	0x3fb5b009	1.4194347
11	0x3c0c46bd	0.008561787
12	0x3c8c9701	0.017161848
13	0xbcb02e81	-0.02150655
14	0x4080d6c3	4.026216
15	0x3c89ccb8	0.01682125
16	0x3f454101	0.77052313
17	0xc021b286	-2.5265212
18	0x40c985dc	6.2975903
19	0xc098bfd9	-4.773419
20	0xc023c64f	-2.5589788
21	0xbc811e65	-0.015761564
22	0xbc1ca586	-0.009560948
23	0x400f7616	2.2415824
24	0x3c05f128	0.008175172
25	0xbfd53f67	-1.6659974
26	0x3cafdcee	0.021467652
27	0xbb791aba	-0.0038010315
28	0x3caaa884	0.020832308
29	0x40a55ccb	5.1675773
30	0x4013c313	2.3087814
31	0x3dc8d399	0.09805984
32	0xc06e9d20	-3.7283401
33	0xbe81d93a	-0.25361043
34	0x3c0bf324	0.008541856
35	0x3ee43405	0.44570938
36	0xbba1a4ae	-0.0049329614
37	0x3c1c245b	0.009530152
38	0xc0b25037	-5.572292
39	0x40e22276	7.0667067
40	0x3c887608	0.016657844
41	0xbc6397f6	-0.013891211
42	0x3d0fb4b7	0.035084452
43	0x3c2d30bb	0.0105707
44	0x3c9bb923	0.019009179
45	0x3d89b980	0.067248344
46	0x40a8c421	5.2739415
47	0x3c8486da	0.016177583
48	0xbfdce67f	-1.7257842
49	0xbc208718	-0.009797834
50	0x3c0ad982	0.0084747095
51	0xc09262d9	-4.5745664
52	0xbbc82438	-0.0061078332
53	0x3b7edff9	0.0038890822
54	0xbb77ae72	-0.0037793186
55	0x39bdd6d7	0.00036208957
56	0x40ddd915	6.9327493
57	0x40e78cb2	7.2359247
58	0x3c4235b5	0.011853625
59	0x3df569b6	0.119830534
60	0x40816196	4.0431623
61	0xbc1b0b5d	-0.009463158
62	0x3bc05ed1	0.005870678
63	0x3cb22483	0.021745926
64	0xbd956ea5	-0.072964944
65	0x39b5d603	0.0003468246
66	0x3ca329cc	0.019917391
67	0x3cf8e712	0.03038362
68	0x3e9f63de	0.3113088
69	0x40a3c453	5.1177154
70	0x3c464940	0.012102425
71	0x3c56f09f	0.013118892
72	0x3cc8a4b4	0.0244926
73	0x3b7ed6bd	0.0038885318
74	0x40f1adce	7.5524664
75	0x3c17966b	0.009252171
76	0xbc7aad77	-0.015300146
77	0xbbe7faab	-0.0070794425
78	0x408f1021	4.470719
79	0xbc7decd4	-0.015498359
80	0x40db9dd6	6.863017
81	0x40c82abb	6.255216
82	0xc06c3d5c	-3.691245
83	0x40eb7061	7.357468
84	0x407e0915	3.9693043
85	0xbc1c7b9f	-0.009550958
86	0x3c2fee6b	0.010737996
87	0x3f98d1f7	1.1939076
88	0xbc84e140	-0.016220689
89	0x3ed48479	0.4150732
90	0x3c124bce	0.008929206
91	0xba051aa8	-0.00050775195
92	0xbabb01fa	-0.0014267557
93	0x401572b8	2.3351269
94	0xc0832aeb	-4.098989
95	0xbe5a6756	-0.21328482
96	0x40b2f954	5.5929356
97	0xbfb9e734	-1.4523683
98	0x3c1c9c59	0.009558761
99	0xbed31d33	-0.41233215
100	0xbce2e5a4	-0.027697392
101	0xbb100b9b	-0.0021979574
102	0x40ca44d8	6.320904
103	0xbfd6c108	-1.6777658
104	0xbbc0a9ff	-0.00587964
105	0x3cba652e	0.022753324
106	0xbcebdd44	-0.028792031
107	0xbc0d8377	-0.008637301
108	0x3caafd98	0.020872876
109	0xbcca0aa3	-0.024663275
110	0xc0aac222	-5.336198
111	0xbc897371	-0.01677868
112	0x40b67cb8	5.7027245
113	0xbbd974ca	-0.006636237
114	0x3c2d3b6a	0.010573247
115	0xc0e9ec52	-7.3100977
116	0x3c02caa4	0.007982884
117	0xbbe1c706	-0.0068901805
118	0x3b6c3137	0.0036040077
119	0xbc9bf256	-0.019036453
120	0x40c747d5	6.2275186
121	0xc0d7e7c6	-6.7470427
122	0x3d013556	0.031545006
123	0x3e257fbc	0.16162008
124	0x40bea349	5.9574323
125	0x3c0e7bd2	0.008696513
126	0xbcfe445b	-0.031038454
127	0xbc05b6bb	-0.008161242
128	0xbd0f75b7	-0.03502437
129	0xbb56ac70	-0.003275659
130	0xbc7ddedc	-0.015495028
131	0x3d10a223	0.035310876
132	0x4001786a	2.0229745
133	0x3fe6cbe2	1.803097
134	0xbc936fbf	-0.01799762
135	0x3ba19cbe	0.004932015
136	0x3a0e3d06	0.00054259633
137	0xbc28aa43	-0.0102945
138	0xc0d0a9a0	-6.520706
139	0xbbfda2d0	-0.007740356
140	0x3bdde8ce	0.0067721372
141	0xb915cc23	-0.00014285794
142	0x406639a5	3.5972683
143	0xbb4c4026	-0.0031166165
144	0xc0387a81	-2.882477
145	0xc058059b	-3.3753421
146	0xbf2cf7cf	-0.67565626
147	0x3fb4e6e2	1.413296
148	0x4004df88	2.0761433
149	0x3c32b365	0.010907029
150	0xbbf12f43	-0.0073603704
151	0xc08be7ff	-4.37207
152	0x3a608a99	0.00085655745
153	0xbfe57f3e	-1.7929456
154	0xbcdf5fbf	-0.027267335
155	0x3aeac07f	0.0017910152
156	0x3cd04253	0.02542225
157	0xc075d10a	-3.8408837
158	0x40d0ee86	6.5291166
159	0xbe826ce6	-0.25473708
160	0x3f088fe8	0.53344584
161	0x3fd2001e	1.6406286
162	0xbb20a1ed	-0.0024510578
163	0x3e68ef1a	0.2274746
164	0xbca4be7e	-0.020110365
165	0x3bb08899	0.0053873775
166	0x40dc0282	6.875306
167	0x40ae2527	5.442035
168	0x3d22c541	0.039738897
169	0x3c1500e5	0.009094452
170	0xbb9ca52f	-0.0047804336
171	0xbcca8d4d	-0.02472558
172	0x3c87e0da	0.01658671
173	0xbcad78d8	-0.021175787
174	0xc06baad2	-3.682301
175	0x3ba0ba51	0.004905023
176	0xc0b1b86b	-5.553762
177	0xbbf5097b	-0.007477937
178	0x3c0af7aa	0.008481899
179	0xc0ac77ea	-5.389638
180	0x3b957f1d	0.004562272
181	0xbd395ad9	-0.045252655
182	0xbb9edbed	-0.0048479945
183	0x3d760ec8	0.06007269
184	0x407b3761	3.925255
185	0x407aa707	3.9164445
186	0xbb996566	-0.004681277
187	0xbe97a3d8	-0.2961719
188	0x408484d6	4.1412153
189	0x3b86a42b	0.004108926
190	0x3cc46846	0.023975503
191	0xbcc3f2d8	-0.023919508
192	0x3d06d9db	0.032922607
193	0xbc519613	-0.012792128
194	0xbbf4fa4f	-0.007476128
195	0x3a8d33aa	0.0010772843
196	0x3e812497	0.25223228
197	0xc05f34f2	-3.4876065
198	0x3c82df69	0.01597567
199	0xbb68bbbf	-0.0035512296
200	0x3b65a7f4	0.0035042735
201	0xbc0a8427	-0.008454359
202	0x40914dfc	4.5407696
203	0x3bdf4e57	0.0068147588
204	0xbc846750	-0.016162544
205	0xbd168e59	-0.036756847
206	0x3fc13dee	1.5097024
207	0xbbe77e47	-0.007064614
208	0xc0491ddb	-3.1424472
209	0xbfff5afd	-1.9949642
210	0x40cf0a37	6.469997
211	0xc053df62	-3.3105092
212	0xbff70158	-1.9297285
213	0x3c8222cb	0.015885731
214	0x3b42c6ce	0.0029720548
215	0x400df3a1	2.217995
216	0xbbb8ffbd	-0.0056457208
217	0x409d0282	4.906556
218	0x3c76096c	0.015016895
219	0xbb84b396	-0.0040497286
220	0x3c849b15	0.01618723
221	0xc08a760d	-4.3269105
222	0x40503e2d	3.253795
223	0x3e50a1ae	0.20374176
224	0xc019ce65	-2.4032223
225	0xbfcb9eec	-1.5907874
226	0x3c2540e0	0.010086268
227	0x3eb0e88d	0.34552422
228	0xbc90adb5	-0.017660955
229	0x3bdd64b7	0.006756391
230	0x4070113f	3.7510526
231	0x3fd05da4	1.6278577
232	0xbd5154ac	-0.05110614
233	0x3c239982	0.00998533
234	0x3c8cbb3d	0.017179126
235	0xbc08dc69	-0.008353331
236	0x3c041390	0.008061305
237	0x3d733fd9	0.05938706
238	0xc0c557b7	-6.1669574
239	0x3cc4421a	0.0239573
240	0x3f299a1f	0.66250795
241	0x3a9d8c40	0.0012019947
242	0xb8b04ce6	-8.4066574e-05
243	0x40be062c	5.9382534
244	0xbb309439	-0.0026943816
245	0xbd0908c6	-0.033455633
246	0xbb252632	-0.0025199768
247	0x3d235a9b	0.03988133
248	0xc09829e1	-4.755112
249	0xc027b8f3	-2.6206634
250	0xbc97bc40	-0.018522382
251	0xbe4800d7	-0.1953157
252	0x3f8081a9	1.0039569
253	0x3afef477	0.0019451518
254	0xbcc25c76	-0.02372573
255	0xbc9d7062	-0.019218627

sequential/dense_2/MatMul;sequential/dense_2/Relu;sequential/dense_2/BiasAdd f4 [32]
0	0x3f38de3e	0.72214115
1	0xbfe6512b	-1.799352
2	0x3d108991	0.035287444
3	0xbeccce8b	-0.4000133
4	0x3f8113c5	1.0084158
5	0xbd5e3ba3	-0.054256093
6	0x3c114f51	0.008869008
7	0xbf974efe	-1.1820982
8	0x3f4a0b4f	0.78923506
9	0x3edcd398	0.43130183
10	0x3e5a86b6	0.2134045
11	0x3ef51a7f	0.47871777
12	0xbf55b3c0	-0.834774
13	0x3f8c86c8	1.0978632
14	0xbf9998d6	-1.1999767
15	0xbecc3203	-0.39881906
16	0x3eaf9388	0.34292245
17	0x3da24afb	0.07924458
18	0x3ea1353a	0.3148592
19	0x3e495671	0.19661881
20	0xbf326874	-0.6969063
21	0x3eebafb4	0.46032488
22	0xbfb48aaf	-1.4104823
23	0xbf8a8cf0	-1.0824261
24	0xbfa3b243	-1.2788776
25	0x3f19e305	0.6011203
26	0xbf0ad94a	-0.54237807
27	0x3fe7e31e	1.8116186
28	0xbde6b4d7	-0.11264961
29	0xbf649f5b	-0.8930566
30	0x3f80d330	1.0064449
31	0x3eb48a45	0.3526174

sequential/batch_normalization_1/batchnorm/mul_1;sequential/batch_normalization_1/batchnorm/add_1;sequential/dense_2/MatMul;sequential/dense_2/Relu;sequential/dense_2/BiasAdd f4 [32, 64]
0	0x3e07d0a3	0.13263182
1	0xbea0af0d	-0.31383553
2	0xbeaa4032	-0.33252102
3	0xbf44e905	-0.7691806
4	0xbca1a686	-0.019732725
5	0xbdc77c39	-0.097404905
6	0xbdaa9d84	-0.08330825
7	0x3ed44852	0.41461426
8	0x3dc92e00	0.09823227
9	0x3c250f76	0.010074487
10	0xbf00a7ac	-0.50255847
11	0x3ebdb663	0.37053213
12	0xbe60c1b2	-0.21948889
13	0xbf248ee0	-0.6428051
14	0xbf1078cc	-0.5643432
15	0x3d7f2d35	0.062298972
16	0xbf06a4a5	-0.5259498
17	0x3d713ca7	0.058895733
18	0x3ea54d40	0.322855
19	0xbed82192	-0.42213112
20	0xbd09fd31	-0.033688728
21	0xbe8f4eab	-0.27989706
22	0xbb468a3a	-0.0030294792
23	0xbea8fc8b	-0.33005175
24	0x3da5b7d6	0.080917045
25	0xbf178ecb	-0.5920226
26	0xbedcc1c5	-0.43116584
27	0xbc8dd3ba	-0.017312873
28	0x3f184c46	0.59491384
29	0xbf0bc9ea	-0.5460497
30	0xbbcff677	-0.0063465196
31	0xbf08adde	-0.533903
32	0xbdc6a69f	-0.09699749
33	0x3f169ee5	0.58836204
34	0x3f6f4531	0.9346495
35	0x3fc495bb	1.5358194
36	0xbe924b74	-0.2857319
37	0x3faf4451	1.3692724
38	0xbf81b078	-1.0131979
39	0x3fad9101	1.3559877
40	0xbe4369e1	-0.19083358
41	0x3eb620b9	0.3557184
42	0xbc514923	-0.012773785
43	0x3d8f8efc	0.07009694
44	0x3fa00220	1.2500648
45	0xbe619257	-0.2202848
46	0xbcefd169	-0.02927466
47	0xbe40996b	-0.18808524
48	0x3f48a3e2	0.78375065
49	0xbccf571e	-0.025310095
50	0xbec3fefe	-0.3828048
51	0xbd9fd376	-0.07804005
52	0x3e653b45	0.22385891
53	0x3c9ff986	0.019528162
54	0xbe65b618	-0.22432745
55	0xbf03554b	-0.5130202
56	0x3e52da13	0.20591001
57	0x3ef957d2	0.48699814
58	0xbf11acc6	-0.56904256
59	0xbe215e3d	-0.15758605
60	0x3ead39bc	0.3383311
61	0xbf89980d	-1.0749527
62	0x3df157fb	0.11784359
63	0x3edc22fd	0.42995444
64	0x3ecd4993	0.40095195
65	0x3f0b8aeb	0.54508847
66	0x3f3badce	0.7331208
67	0x3ef9d443	0.48794755
68	0x3e737abf	0.23777293
69	0x3ea075f2	0.31339985
70	0xbd828df4	-0.06374732
71	0xbe0f4339	-0.13990487
72	0x3ea972d5	0.33095422
73	0x3e9e5332	0.30922848
74	0xbb6a9654	-0.003579517
75	0x3d5d84d7	0.054081764
76	0xbe5ba150	-0.21448255
77	0xbf2c96dd	-0.674177
78	0x3e824000	0.25439453
79	0xbe13b9a1	-0.1442628
80	0x3e767b59	0.24070491
81	0x3eedf795	0.46477953
82	0x3d6bc99d	0.05756532
83	0xbe923df2	-0.28562886
84	0x3f071abc	0.5277517
85	0x3e0ea5cd	0.13930435
86	0x3e25f02a	0.16204897
87	0xbf6c5dae	-0.92330444
88	0x3ed6a008	0.4191897
89	0x3ed6e5b6	0.4197213
90	0x3ee56752	0.4480539
91	0x3e55a275	0.20862754
92	0x3dc6f139	0.09713978
93	0x3efa4807	0.48883078
94	0x3ea2a68d	0.31767693
95	0xbf384036	-0.7197298
96	0xbec08ab2	-0.37605816
97	0xbf30a990	-0.6900873
98	0xbf6d3700	-0.9266205
99	0x3e4d7cf9	0.20067205
100	0x3eb91f8a	0.36156875
101	0xbed1aa8f	-0.40950438
102	0xbefbda74	-0.49190104
103	0x3f192b45	0.5983165
104	0xbe950877	-0.2910802
105	0x3e1788b9	0.1479825
106	0xbd88df12	-0.06683172
107	0x3e8d89db	0.27644238
108	0x3fb89fc6	1.4423759
109	0x3e216bfe	0.15763852
110	0x3f2ec45b	0.68268365
111	0x3e17a0c6	0.14807424
112	0x3e858195	0.26075426
113	0x3e00e3c3	0.12586884
114	0x3c048068	0.008087255
115	0x3db6e2c7	0.08929973
116	0xbf36f154	-0.7146199
117	0x3f33c777	0.70226234
118	0x3e55870f	0.20852302
119	0x3f5baf25	0.85814124
120	0xbebe5266	-0.3717224
121	0xbe927bb3	-0.2861
122	0xbeb37809	-0.35052517
123	0xbea9db69	-0.3317521
124	0xbf03ecb7	-0.51533073
125	0x3ed99943	0.42499742
126	0xbcdee72d	-0.027209843
127	0x3fa5b317	1.2945279
128	0xbe8cf7e4	-0.27532876
129	0x3d1470c8	0.03624037
130	0x3f44be2d	0.76852685
131	0xbe8fa5e1	-0.28056243
132	0xbf2beede	-0.6716136
133	0xbec7fe32	-0.39061123
134	0xbf105303	-0.56376666
135	0xbf14fe2c	-0.58200336
136	0x3e943a4d	0.2895073
137	0xbede6219	-0.43434218
138	0x3e9f5c10	0.31124926
139	0x3d11556d	0.03548186
140	0xbedd1442	-0.43179518
141	0xbf4f89e5	-0.81069785
142	0xbea8c3aa	-0.3296178
143	0xbe5ad044	-0.2136851
144	0xbe5176ce	-0.20455477
145	0xbe5ebafd	-0.21751018
146	0xbd2cdc93	-0.042202543
147	0xbe35a5ff	-0.17739104
148	0x3f129042	0.5725137
149	0xbec57fbd	-0.3857402
150	0x3e399eb4	0.18126947
151	0x3f21678f	0.6304864
152	0x3db197b6	0.08671515
153	0x3f254d36	0.6457094
154	0xbe8e6fd1	-0.27819684
155	0x3e9ab3b3	0.30215225
156	0x3f2d6f55	0.67748004
157	0xbde8fd70	-0.11376464
158	0xbe7f5f0e	-0.24938604
159	0xbf039a67	-0.51407474
160	0xbe86bac6	-0.26314372
161	0xbf5aea2a	-0.85513556
162	0x3f512044	0.8168986
163	0xbfb82ba8	-1.4388323
164	0x3ee38d2d	0.44443646
165	0x3f2a2b64	0.6647246
166	0xbe07c942	-0.13260368
167	0x3f81fe0b	1.0155653
168	0x3d88864a	0.066662386
169	0x3eb78572	0.35843998
170	0x3d465ca4	0.048428193
171	0xbeb195b5	-0.3468453
172	0x3faec79b	1.3654665
173	0xbf15c547	-0.58504146
174	0x3ed4a563	0.4153243
175	0xbd27f2f3	-0.04100318
176	0xbf82d6b4	-1.0221772
177	0x3e1c385a	0.15255871
178	0xbcd710d1	-0.026253136
179	0x3d89b761	0.0672443
180	0xbf7d7138	-0.99000883
181	0x3f4c3154	0.7976277
182	0x3f63df7f	0.890129
183	0xbea3efe5	-0.32018963
184	0x3e85c994	0.26130354
185	0x3ef56de4	0.47935402
186	0x3eeb8264	0.45997918
187	0x3df79df6	0.120906755
188	0x3f5f5297	0.872354
189	0xbf9950f4	-1.197783
190	0xbef5766d	-0.47941914
191	0x3f5bdb7c	0.8588178
192	0x3e639d1e	0.22227904
193	0xbea23424	-0.31680405
194	0x3f627033	0.8845245
195	0xbf215c25	-0.63031226
196	0x3f1e7026	0.61889875
197	0xbecaf1a3	-0.3963748
198	0xbec88d02	-0.3917008
199	0xbf5b7c32	-0.8573638
200	0xbe11c2d1	-0.14234473
201	0xbd919745	-0.071089305
202	0xbe024f42	-0.12725547
203	0x3d1305a4	0.03589405
204	0x3de79757	0.11308163
205	0x3f2e5ccf	0.68110365
206	0xbf2d0825	-0.6759055
207	0x3e2fed1f	0.17180298
208	0xbec0373d	-0.37542143
209	0x3db6d18a	0.08926685
210	0x3edb1288	0.42787576
211	0xbea6d005	-0.3258058
212	0x3e36183b	0.1778268
213	0xbe900b10	-0.2813344
214	0xbe7c0b9b	-0.24613802
215	0x3f948c5f	1.1605338
216	0x3cfc37a6	0.030788254
217	0xbf1e8c1e	-0.6193255
218	0xbeb7b906	-0.3588335
219	0x3e23db44	0.16001612
220	0x3f08c644	0.5342753
221	0x3eaea587	0.34110662
222	0x3d446850	0.047951043
223	0x3ed1c966	0.40973967
224	0xbe489428	-0.19587767
225	0x3e898841	0.26861766
226	0x3ded806d	0.11596761
227	0x3f333bd1	0.7001315
228	0x3ef78b62	0.48348528
229	0xbf8de7c8	-1.1086359
230	0xbf070019	-0.52734524
231	0x3f331858	0.6995902
232	0x3df3aa0b	0.118976675
233	0xbe1d1817	-0.15341221
234	0xbe33dbfd	-0.17564388
235	0x3eb2d5d2	0.34928757
236	0x3f9d32ff	1.2281188
237	0xbe7a78f4	-0.24460202
238	0xbf13c5d5	-0.5772374
239	0x3e529f62	0.20568612
240	0xbf6eecc6	-0.9333004
241	0xbc8e9059	-0.017402815
242	0x3eab122e	0.33412308
243	0x3de552a5	0.11197404
244	0xbd6767f0	-0.056495607
245	0xbeacd6e0	-0.33757687
246	0x3f4424eb	0.7661883
247	0xbd97bbe0	-0.07408881
248	0x3f06fe26	0.5273155
249	0xbe1d0055	-0.15332158
250	0xbf086b3a	-0.53288615
251	0xbe84519b	-0.2584351
252	0x3f083170	0.53200436
253	0x3f1c0cc8	0.60957
254	0x3f85ffd7	1.0468701
255	0xbf0d61b7	-0.55227226

sequential/batch_normalization_2/batchnorm/mul_1;sequential/batch_normalization_2/batchnorm/add_1;sequential/dense_3/MatMul;sequential/dense_3/BiasAdd f4 [1, 32]
0	0xbf3b0e1b	-0.730684
1	0xbe8efc84	-0.2792703
2	0x3f0ac160	0.54201317
3	0xbec3e95b	-0.38263974
4	0x3e6bd22f	0.23029397
5	0xbe9df5f9	-0.30851725
6	0xbeb18df3	-0.3467861
7	0x3ebb616e	0.3659777
8	0x3ea08ec7	0.3135893
9	0xbf10596b	-0.5638644
10	0x3e92f299	0.28700712
11	0x3f4de8dc	0.8043344
12	0xbe8a122e	-0.26966995
13	0x3f635506	0.8880161
14	0x3e6dcd73	0.23222904
15	0x3e294349	0.16529574
16	0xbe8c7673	-0.2743412
17	0xbf39b901	-0.7254792
18	0xbf05f51e	-0.52327144
19	0xbefe7237	-0.49696514
20	0xbea3df45	-0.3200628
21	0x3e1f483d	0.155549
22	0x3dbe39fd	0.09288404
23	0x3f28e0a2	0.6596776
24	0x3e8727c1	0.26397517
25	0x3f0e6c58	0.5563407
26	0xbf6465f8	-0.8921809
27	0x3f069b45	0.5258067
28	0x3d5f9152	0.054581948
29	0x3e9a7ef8	0.30174994
30	0x3f4cb50d	0.7996376
31	0x3d2559e6	0.040368937

sequential/dense/BiasAdd/ReadVariableOp f4 [64]
0	0xbc942305	-0.018083105
1	0xbc2ca46e	-0.01053725
2	0xbc90182a	-0.017589647
3	0xb7e5cfe4	-2.7395734e-05
4	0x00000000	0.0
5	0x00000000	0.0
6	0xb4100408	-1.3412512e-07
7	0xb719f3db	-9.176288e-06
8	0xb691f857	-4.3502473e-06
9	0xb7294083	-1.0088205e-05
10	0x00000000	0.0
11	0x3a91ffeb	0.0011138892
12	0xbcdeee52	-0.02721325
13	0xbca36483	-0.019945389
14	0x00000000	0.0
15	0x3ac3ec11	0.0014947673
16	0x00000000	0.0
17	0x00000000	0.0
18	0x00000000	0.0
19	0x00000000	0.0
20	0x00000000	0.0
21	0xbaf3dac4	-0.0018604626
22	0x366c3692	3.5198505e-06
23	0x00000000	0.0
24	0x3c076858	0.008264624
25	0x00000000	0.0
26	0xbc86e39e	-0.016465958
27	0xbc1d5e33	-0.009604978
28	0xb79087b9	-1.7229338e-05
29	0x00000000	0.0
30	0x00000000	0.0
31	0x3bdcf28f	0.0067427824
32	0x00000000	0.0
33	0x00000000	0.0
34	0x33dec30e	1.0373161e-07
35	0xbb0510f5	-0.0020304297
36	0xb8172a39	-3.604053e-05
37	0x36f2a311	7.2311454e-06
38	0x00000000	0.0
39	0x00000000	0.0
40	0x3c089790	0.008336917
41	0x3c1a6e5f	0.009425729
42	0x3bf68659	0.0075233397
43	0xb4f24d04	-4.513205e-07
44	0xbb00c84c	-0.0019650636
45	0x3b88af29	0.0041712713
46	0x00000000	0.0
47	0xb567201a	-8.610092e-07
48	0x00000000	0.0
49	0xbc6cbf9f	-0.014449983
50	0xb6e25aa0	-6.745875e-06
51	0x00000000	0.0
52	0x355eead6	8.3043176e-07
53	0xb85baae4	-5.2372823e-05
54	0xb700fa05	-7.687607e-06
55	0x3b04c979	0.0020261689
56	0x00000000	0.0
57	0x00000000	0.0
58	0xbc32bc31	-0.010909126
59	0xbae96220	-0.0017805733
60	0x00000000	0.0
61	0x3c8141c1	0.015778424
62	0xbb1b4504	-0.002369226
63	0x3c7a64cb	0.01528282

sequential/dense/MatMul f4 [64, 8]
0	0xbe4f39d5	-0.20236905
1	0x3e8fdbea	0.2809747
2	0xbdda8df2	-0.10671605
3	0xbde913f2	-0.113807574
4	0xbe2105da	-0.15724888
5	0xbe5f8ef2	-0.21831873
6	0xbe423ab0	-0.189677
7	0xbd8d4ca5	-0.068993844
8	0x3e25718a	0.16156593
9	0xbe8794b0	-0.26480627
10	0x3e589b14	0.21152908
11	0x3e7c68b1	0.24649312
12	0x3e6b7227	0.22992764
13	0x3e7b3a8b	0.24534051
14	0x3e0c253d	0.1368608
15	0xbd21d711	-0.039511744
16	0x3ddba4e2	0.10724808
17	0xbe8293ac	-0.2550329
18	0xbdb3be70	-0.087765574
19	0x3e5ffef0	0.21874595
20	0x3e56f246	0.20990857
21	0x3da9fa2c	0.082996696
22	0x3e2cf951	0.16891982
23	0xbdb41c99	-0.08794517
24	0xbe2d14b3	-0.16902427
25	0x3e079818	0.13241613
26	0xbcc335aa	-0.0238293
27	0xbdeee240	-0.116642475
28	0x3c15a33b	0.009133155
29	0xbd0ac07c	-0.033874974
30	0xbe0cfd5e	-0.13768527
31	0x3e8a0897	0.2695968
32	0xbe10b1b6	-0.14130291
33	0xbe5d5822	-0.21615651
34	0xbe797c38	-0.24363792
35	0xbe705ef7	-0.23473726
36	0x3d3b0fd0	0.045669377
37	0x3d7aa2f8	0.061190575
38	0x3dc6f878	0.097153604
39	0xbe0105e2	-0.125999
40	0x3c62e160	0.013847679
41	0x3d8dc124	0.06921604
42	0x3d5ae0a0	0.053436875
43	0xbe781b47	-0.24229155
44	0xbe1d71e7	-0.15375482
45	0xbe06ce9b	-0.13164751
46	0xbe5a9c06	-0.2134858
47	0xbcc00680	-0.0234406
48	0x3e2ecc6a	0.17070165
49	0xbda38432	-0.07984199
50	0x3e5fcb02	0.21854785
51	0x3e899261	0.2686949
52	0x3dec5142	0.11538936
53	0x38ef05bd	0.00011397477
54	0xbb08e5c4	-0.0020888904
55	0x3e27af3c	0.1637544
56	0x3e81885d	0.2529935
57	0x3d4c813c	0.049927935
58	0xbd77e76b	-0.06052343
59	0xbe556c27	-0.20842038
60	0x3d9792f2	0.074010745
61	0x3dfb5392	0.12271799
62	0xbe1be570	-0.15224242
63	0x3e864440	0.26223946
64	0x3de764d7	0.112985305
65	0x3e406d25	0.18791635
66	0x3d28a5f7	0.0411739
67	0x3e0a586d	0.13510294
68	0xbdc71a31	-0.097217925
69	0x3d283071	0.041061822
70	0x3ea486d8	0.32134128
71	0x3e636455	0.22206242
72	0x3d8738db	0.06602641
73	0x3e0679e0	0.13132429
74	0xbc43131b	-0.011906411
75	0xbe00e4ae	-0.12587234
76	0x3e4d5e95	0.20055611
77	0xbe49d054	-0.19708377
78	0x3e0c44bf	0.136981
79	0xbce5cf71	-0.028053017
80	0x3e2e2172	0.17004946
81	0xbdef1fd6	-0.11675994
82	0xbe36ed50	-0.17863965
83	0xbe6b8328	-0.22999251
84	0xbe41e48e	-0.18934843
85	0xbe145752	-0.14486435
86	0xbe4389d6	-0.19095549
87	0x3d463c60	0.04839742
88	0x3dd4ae33	0.10384788
89	0x3e475209	0.19464888
90	0xbe88bc2c	-0.26706064
91	0xbe47bde7	-0.19506036
92	0x3e740ae9	0.23832287
93	0xbca9c8bc	-0.0207256
94	0xbe44b498	-0.19209516
95	0xbe39fb83	-0.1816235
96	0x3e756b1a	0.23966637
97	0xbd214f4b	-0.03938226
98	0xbe6e94ab	-0.232989
99	0x3e4fd330	0.20295405
100	0x3e4af565	0.19820173
101	0xbe1bf7ae	-0.15231201
102	0xbeadb873	-0.33929786
103	0x3d9784b7	0.0739836
104	0x3bc31fcd	0.0059547187
105	0x3cd79173	0.026314473
106	0x3df4dabc	0.11955783
107	0xbe8c1c06	-0.2736513
108	0xbcd06a46	-0.0254413
109	0xbe1198b6	-0.14218411
110	0xbb70a49f	-0.0036719216
111	0x3e90e370	0.2829852
112	0x3dfe2728	0.12409812
113	0xbe45d14e	-0.19318125
114	0xbe618d3c	-0.22026533
115	0x3e04ac38	0.12956321
116	0xbd7da084	-0.061920658
117	0x3d0d5348	0.03450325
118	0x3dd399ac	0.10332045
119	0x3e2884b2	0.16456869
120	0xbdc1badd	-0.094594695
121	0xbe2dcd5d	-0.16972871
122	0xbe79d009	-0.24395765
123	0x3d59ef4c	0.053206727
124	0x3e4852bf	0.19562815
125	0x3e81576b	0.25262007
126	0x3d675343	0.05647589
127	0xbd9022de	-0.070379004
128	0x3e7a49e0	0.24442244
129	0xbd947222	-0.072483316
130	0xbe5248ce	-0.20535585
131	0xbe9340ab	-0.28760275
132	0x3d373748	0.044730455
133	0x3dcf0b88	0.10109621
134	0x3e05e1f2	0.13074473
135	0xbbcdcf40	-0.0062808096
136	0xbe6108c9	-0.21976008
137	0xbe1a7c50	-0.15086484
138	0x3dc9e90c	0.09858903
139	0x3e4ae6d0	0.1981461
140	0xbe1a76e6	-0.15084419
141	0xbe6a442b	-0.22877567
142	0xbe4f44d1	-0.20241095
143	0xbb309d80	-0.0026949346
144	0x3b8dedc0	0.0043313205
145	0xbe4b79a4	-0.19870621
146	0xbe2c3ade	-0.16819331
147	0x3e112524	0.14174324
148	0x3dc65024	0.09683254
149	0xbde1ac68	-0.11019212
150	0x3e87c8ee	0.26520485
151	0xbe1f9ab8	-0.15586364
152	0xbe5404b8	-0.20704925
153	0x3d98bc38	0.07457775
154	0xbe4233b0	-0.1896503
155	0x3e41bcc4	0.18919665
156	0xbe56485c	-0.2092604
157	0xbdd76e3a	-0.10519071
158	0xbd96e40e	-0.07367717
159	0xbe431e0e	-0.19054434
160	0x3d936348	0.07196671
161	0xbd0613f8	-0.032733887
162	0x3cf29010	0.02960971
163	0x3e8004e8	0.25003743
164	0xbddd4b04	-0.10805324
165	0xbdb43d70	-0.08800781
166	0xbc9c12b0	-0.01905188
167	0xbe1c7805	-0.15280159
168	0xbe25f577	-0.16206919
169	0x3cecc32e	0.028901663
170	0xbe2e6ca3	-0.17033629
171	0xbe6ce19c	-0.23132938
172	0x3e318f65	0.17339857
173	0x3d88e192	0.06683649
174	0x3e26dd2a	0.16295305
175	0xbd82fd76	-0.06396
176	0xbda8a6cd	-0.0823494
177	0xbcdb012e	-0.026733961
178	0x3e93962b	0.28825507
179	0xbe3de5be	-0.18544671
180	0x3e5e50cd	0.2171051
181	0xbe4c2068	-0.19934237
182	0x3ea47ff3	0.32128868
183	0x3e27972b	0.1636626
184	0x3e7cbc70	0.24681258
185	0xbe896efa	-0.2684248
186	0xbe7df0bd	-0.24798866
187	0x3e93ad74	0.28843272
188	0xbe62037b	-0.2207164
189	0x3e027492	0.1273978
190	0xbe93a07b	-0.28833374
191	0xbe318158	-0.17334497
192	0x3e099f10	0.13439584
193	0xbe5baa0d	-0.21451588
194	0x3dc1c0d3	0.094606064
195	0x3d5db33c	0.05412601
196	0x3e53447b	0.20631592
197	0x3e57ed58	0.21086633
198	0xbdd471f7	-0.103732996
199	0x3e31a2a4	0.17347199
200	0x3e021506	0.12703332
201	0xbdef3a48	-0.11681038
202	0xbc58f560	-0.013242096
203	0xbe32c63b	-0.17458431
204	0xbe735a0a	-0.23764816
205	0x3e24c13e	0.16089341
206	0x3e8edbda	0.27902108
207	0xbe45e95a	-0.19327298
208	0x3d31b5b1	0.043386165
209	0x3d1707e1	0.03687275
210	0x3e4cf539	0.2001542
211	0x3e90543c	0.28189266
212	0xbdcab8d6	-0.09898536
213	0xbe799351	-0.24372603
214	0xbe92c70c	-0.28667486
215	0x3dcd8f3f	0.10037088
216	0xbe11599b	-0.14194338
217	0xbd4d7f6a	-0.05017034
218	0x3d2bed60	0.041974425
219	0x3bf93bc4	0.0076060016
220	0x3e55f769	0.2089516
221	0x3de049ba	0.10951562
222	0x3e8a3949	0.2699683
223	0xbe3a1ef7	-0.18175875
224	0x3e41329a	0.18866959
225	0xbdd6663e	-0.1046872
226	0x3dfe8890	0.12428391
227	0x3e23a29f	0.15980004
228	0x3dc92e85	0.09823326
229	0x3e3a04bb	0.18165867
230	0x3e5646bf	0.20925425
231	0x3e4799f8	0.19492328
232	0x3e90bef2	0.2827068
233	0x3d7b1b68	0.061305434
234	0xbdfd9bf0	-0.12383258
235	0xbd9584aa	-0.07300694
236	0xbe80b1c1	-0.25135615
237	0xbe3df9c4	-0.1855231
238	0xbe1940b3	-0.14966087
239	0x3dcbc1b0	0.09949052
240	0xbda4eb06	-0.0805264
241	0xbe410ffa	-0.18853751
242	0xbe89146e	-0.267734
243	0x3d41cff8	0.047317475
244	0xbe26b06d	-0.16278239
245	0xbe022de2	-0.12712815
246	0x3e3e1c08	0.1856538
247	0xbe08aca7	-0.13347112
248	0xbe26316a	-0.16229787
249	0xbe4b74a8	-0.1986872
250	0xbe59ee1f	-0.21282242
251	0xbe31b0ab	-0.1735255
252	0x3e1300e7	0.14355813
253	0x3e1913a2	0.14948896
254	0xbb6a7870	-0.0035777353
255	0x3dbd1c95	0.09233967
